…
ain_v4/', epochs=50, loadModel='', logdir='./logs', normalize=True, saveName='outs/alb_out', sparsity=True, useBatchNormalization=True, useCoordConv=True)
****************************************************************************************************Model: "model"
__________________________________________________________________________________________________
Layer (type)                    Output Shape         Param #     Connected to                     
==================================================================================================
input_1 (InputLayer)            [(None, 224, 224, 3) 0                                            
__________________________________________________________________________________________________
mobilenetv2_1.00_224 (Model)    (None, 7, 7, 1280)   2257984     input_1[0][0]                    
__________________________________________________________________________________________________
prune_low_magnitude_conv2d (Pru (None, 7, 7, 64)     163906      mobilenetv2_1.00_224[1][0]       
__________________________________________________________________________________________________
batch_normalization (BatchNorma (None, 7, 7, 64)     256         prune_low_magnitude_conv2d[0][0] 
__________________________________________________________________________________________________
re_lu (ReLU)                    (None, 7, 7, 64)     0           batch_normalization[0][0]        
__________________________________________________________________________________________________
coordinate_channel2d (Coordinat (None, 7, 7, 66)     0           re_lu[0][0]                      
__________________________________________________________________________________________________
prune_low_magnitude_conv2d_1 (P (None, 5, 5, 32)     38050       coordinate_channel2d[0][0]       
__________________________________________________________________________________________________
prune_low_magnitude_conv2d_2 (P (None, 5, 5, 32)     38050       coordinate_channel2d[0][0]       
__________________________________________________________________________________________________
prune_low_magnitude_conv2d_3 (P (None, 5, 5, 32)     38050       coordinate_channel2d[0][0]       
__________________________________________________________________________________________________
prune_low_magnitude_conv2d_4 (P (None, 5, 5, 32)     38050       coordinate_channel2d[0][0]       
__________________________________________________________________________________________________
global_max_pooling2d (GlobalMax (None, 32)           0           prune_low_magnitude_conv2d_1[0][0
__________________________________________________________________________________________________
global_max_pooling2d_1 (GlobalM (None, 32)           0           prune_low_magnitude_conv2d_2[0][0
__________________________________________________________________________________________________
global_max_pooling2d_2 (GlobalM (None, 32)           0           prune_low_magnitude_conv2d_3[0][0
__________________________________________________________________________________________________
global_max_pooling2d_3 (GlobalM (None, 32)           0           prune_low_magnitude_conv2d_4[0][0
__________________________________________________________________________________________________
flatten (Flatten)               (None, 32)           0           global_max_pooling2d[0][0]       
__________________________________________________________________________________________________
flatten_1 (Flatten)             (None, 32)           0           global_max_pooling2d_1[0][0]     
__________________________________________________________________________________________________
flatten_2 (Flatten)             (None, 32)           0           global_max_pooling2d_2[0][0]     
__________________________________________________________________________________________________
flatten_3 (Flatten)             (None, 32)           0           global_max_pooling2d_3[0][0]     
__________________________________________________________________________________________________
dense (Dense)                   (None, 2)            66          flatten[0][0]                    
                                                                 flatten_1[0][0]                  
                                                                 flatten_2[0][0]                  
                                                                 flatten_3[0][0]                  
__________________________________________________________________________________________________
concatenate (Concatenate)       (None, 8)            0           dense[0][0]                      
                                                                 dense[1][0]                      
                                                                 dense[2][0]                      
                                                                 dense[3][0]                      
==================================================================================================
…
